gcn/best_gcn_model.pth (torch, 23081 bytes, 6 tensors)

g1.W f4 [10, 64]
00000000: 0284 923e b8e1 4fbe 65c1 16be 7d1c 2fbc
00000010: 1072 73be 32cf 823e 75c8 d13d aa37 943d
00000020: d310 bf3c 781f 81bc b009 68be 3ea2 393e
00000030: 27a8 a0bc 3e7a 08be 94f4 62bb 1881 7dbe
00000040: 286f 283e febd 533e c459 333e 1fef 8b3d
00000050: d6cc a0bd 38f3 34bd c87b e1bd a668 5dbe
00000060: 73a1 0cbe 994b 7bbd af29 23be 3491 38be
00000070: 9b32 393e 9013 3ebd d641 e03d 3c78 06bd
00000080: 8cdf 0dbe b7fc 133e 41f0 a0bd c6cd 03be
00000090: 8bdd 4c3e c121 78bd 4a40 633e 374b 8dbd
000000a0: 54f7 98bd e90c 8cbd 84a3 06be 7bec 27be
000000b0: 5f29 16bc b308 06be 547e 3c3e 08c3 83be
000000c0: 96c6 05bd fb5f 60bd 0da5 683e 379b b53c
000000d0: d362 21be 5cb1 5cbe f35d 7f3c e1be bc3e
000000e0: eaa9 45bd c08c 1b3e b3df af3d 69f7 6abe
000000f0: d781 25be ae98 103d 6858 fa3d 4226 7b3e
00000100: 3d8a c83c 522e 013f c7b7 22bd ec33 933e
00000110: 7975 8dbc a4a5 43be 23e8 98be 9fb4 c03e
00000120: 3161 633e 3c22 98be 35af 713c 96c4 ad3d
00000130: 4db9 373d f9f5 85bd 6e25 e9bc a622 ff3c
00000140: 67a3 87bd 421a d4bd b949 12be 3858 a33d
00000150: 5fa6 93bd e915 1e3e a98a 54be 67dd 303e
00000160: 7a8b 8bbe 5ef4 74be 6f7d a03d 4094 303e
00000170: 098b cdbd e789 413e 6677 b8bd 630e b8bd
00000180: 60cb e0ba 8629 183e d90c fbbc 6794 fb3d
00000190: ba1f e2bd fc38 593d 78f0 e63d 3676 4cbe
000001a0: 5f4b ccbe a0f5 473e 5644 03bd 7a5d 85bd
000001b0: 1d68 bebe 214b 043e 1fdb 593e 3dec bd3c
000001c0: f7a5 b73d 27c2 0abd 2238 f83c f6d1 503c
000001d0: bdde b1be 4923 6f3e 967c 1a3d 5f20 983b
000001e0: 06c5 00be 21f2 59be 9995 1c3e 477f 0c3d
000001f0: e3ff cb3d ee2f c53d 9e43 9a3e b70d 97bd
00000200: 942c 133e 4f9c a93e 4f88 b83e 91fc 2f3e
00000210: bd42 b7bc aeae 023d bef9 51bd d4f4 9dbe
00000220: cf77 99bd dcce fe3d 61f5 473e 810c 57bd
00000230: c4b5 bf3b d6ab 41be 5966 123f da77 193e
00000240: aacc 45bc 3004 33bd 018f 4a3e fc33 bb3d
00000250: 9137 233e 72ae b8bd 38aa e6bd f4b3 e93d
00000260: 89bb d23d 6de8 bfbe f175 e43d 7534 a23e
00000270: ea45 0d3e dad4 2a3e 1eab 503e bf69 b5be
00000280: 518a e83d 18eb 4bbe 0bbd 0d3e d9de 82be
00000290: 3ab2 e43d c6bc 92be 0c52 963e 93bc 5bbd
000002a0: c4ee 43be 403c 37be 7099 d3bd 0dc0 99bd
000002b0: 165e 563c 4a65 58be 6ca2 84be 175b 8c3d
000002c0: 99c3 c23e 1590 b23d 8c49 b03c 3ab2 e23c
000002d0: 7463 033e 39b6 43bd 961f a6be 7ee6 903d
000002e0: 01a6 4abe 8aa3 5dbe 48aa 6c3d 3abd 92bc
000002f0: 0f7f 57bd 7ab5 123e ded9 9abd 6562 b83d
00000300: 9b9b babd 2de6 413e e85e a03d e38f 88be
00000310: 0457 0e3d 21eb 83bd ac7c 353d a0b3 9c3d
00000320: 62f2 03be bff1 533e a0d1 2d3e d63b 81bd
00000330: abab 933d 93d4 81bd cb24 fbbd 958e aebc
00000340: 412c 1d3e e2fc 383d 3afe d2be 7419 b53c
00000350: 3098 0cbe 4302 06be f631 983d 1618 153e
00000360: fd04 c53e 6953 e6bd 1795 59be d548 503d
00000370: f9fc 773d 6daa 2c3e ec42 7dbc 178c fe3d
00000380: 620a 18bd e076 eb3d 9e23 6c3d 2135 4d3e
00000390: 2add 40be e472 3fbd 3ebb 283c 2107 b5bc
000003a0: e470 ef3d 57bb 0d3d 6525 1d3e 2cc0 f7bc
000003b0: 37cc 8b3e be00 50be a032 ebbd 2f67 1d3e
000003c0: cd34 1ebe f9b9 1ebe 93ed a8bd c8bd 1b3e
000003d0: 40f6 9dbd c3c8 0dbe ca00 01be 067a 3f3e
000003e0: 4056 d1be e6ce b93d 1560 283e fac4 f83d
000003f0: 0895 09be 0c4b 3b3e 1c39 063e fe9b 62be
0.2861634 -0.20300949 -0.14722212 -0.0106879445 -0.2377398 0.25548702 0.10243312 0.072371796
0.023323452 -0.015762076 -0.22659945 0.18128297 -0.019611431 -0.13327882 -0.0034630643 -0.24756277
0.16448653 0.20677945 0.17514712 0.06832718 -0.07851569 -0.044177264 -0.110099375 -0.21621951
-0.13733463 -0.061351392 -0.1593387 -0.1802414 0.1808571 -0.046405375 0.10950057 -0.03282951
-0.13854808 0.14451872 -0.07858325 -0.12871465 0.20006387 -0.060579065 0.22192493 -0.06899112
-0.07469049 -0.068384 -0.13148314 -0.16398804 -0.009165137 -0.13089256 0.18407565 -0.25734735
-0.03266009 -0.054779034 0.22719212 0.022168739 -0.15760355 -0.21552032 0.015586364 0.3686438
-0.048257746 0.1519041 0.08587589 -0.22945942 -0.16162811 0.035301857 0.122238934 0.24526313
0.02447998 0.50461304 -0.039726045 0.2875055 -0.01726793 -0.19106156 -0.29864606 0.37637803
0.22205044 -0.2971362 0.014751245 0.084847614 0.04485445 -0.06541056 -0.02846023 0.031144451
-0.066229634 -0.10356571 -0.14285935 0.07975811 -0.07209467 0.15438046 -0.2075602 0.17271958
-0.2725485 -0.23921344 0.078364246 0.17244053 -0.100362845 0.18900262 -0.090071484 -0.08987119
-0.0017150454 0.1485959 -0.030645775 0.12284165 -0.110412076 0.05303286 0.112763345 -0.19966969
-0.39901254 0.19527292 -0.032047592 -0.0651197 -0.37188807 0.12919284 0.21274994 0.023183936
0.08967202 -0.033876564 0.030300204 0.012745371 -0.34740248 0.23353304 0.03771647 0.004642531
-0.12575158 -0.21283771 0.15291442 0.03430107 0.09960916 0.096282825 0.30129713 -0.07375663
0.14372474 0.33127066 0.36041495 0.1718619 -0.02237069 0.03190487 -0.051263563 -0.30850852
-0.07493555 0.12441799 0.19527198 -0.05250216 0.0058505256 -0.18913206 0.5718742 0.14987126
-0.0120727215 -0.043705165 0.19781114 0.091407746 0.15939166 -0.09017648 -0.112629354 0.114112765
0.10289676 -0.37482014 0.11155308 0.31680647 0.13796201 0.16682759 0.20377776 -0.3543224
0.11354507 -0.199139 0.13841645 -0.25560644 0.111668065 -0.28659648 0.29359472 -0.053646635
-0.1913405 -0.17894077 -0.10332 -0.07507334 0.013083955 -0.21132389 -0.25905168 0.068533115
0.38039854 0.08718888 0.021519445 0.027672876 0.12830907 -0.047781203 -0.32445973 0.07075213
-0.19789888 -0.21644416 0.05777958 -0.017912496 -0.052611407 0.1432704 -0.07561086 0.09003142
-0.09111711 0.18935461 0.07830602 -0.26672277 0.034750953 -0.06441332 0.04430835 0.07651448
-0.1288543 0.20697688 0.16974497 -0.06310241 0.072104774 -0.063393734 -0.12262877 -0.021308223
0.15348913 0.045163043 -0.41209584 0.022106864 -0.1372993 -0.130868 0.07431404 0.1455997
0.38480368 -0.11246378 -0.2124828 0.050850708 0.060543988 0.16861887 -0.01545785 0.12429064
-0.037119277 0.11497283 0.057651155 0.20039798 -0.18834367 -0.046740428 0.010298548 -0.022098126
0.11691454 0.03460249 0.15346296 -0.030243002 0.2730424 -0.20312783 -0.11484265 0.15371393
-0.1544983 -0.1550063 -0.08248439 0.15209115 -0.07712984 -0.13846116 -0.12597957 0.18698892
-0.40886116 0.09072666 0.16442902 0.12146945 -0.13435757 0.18290347 0.13107723 -0.22129819

g1.b f4 [64]
00000000: 5ec9 c4bb d4c7 c4bb 51e1 d0bb b1ed f6bb
00000010: 0599 debb c132 afbb 60c8 c4bb 95c9 c4bb
00000020: 3dd7 c2b8 74c9 c4bb b5c7 c4bb 9549 e2bb
00000030: 1fc9 c4bb bbc9 c4bb 0580 1d3d 86c7 c4bb
00000040: b0c9 c4bb 0425 b6bb 0000 0000 3f37 0c3d
00000050: 4eba e1bb 4fa1 c4bb 74c1 ec3a 0000 0000
00000060: d608 c53b d51c 2cbc 5cfc b5bb 3fb3 c4bb
00000070: 2dc9 c4bb c6c8 c4bb b5c9 c4bb 05cd 33ba
00000080: ee39 203d d01e b6bb b62e f83c ccc8 c4bb
00000090: 105e 263d bac9 c4bb 3041 87b8 90c9 c4bb
000000a0: 9421 b6bb 93c9 c4bb a580 46ba b28c e1bb
000000b0: b49d 103d 3459 2fb9 bd05 a53c bbc9 c4bb
000000c0: b1c9 c4bb 471e 323c 7ca0 eaba c0c9 c4bb
000000d0: 0000 0000 309e 5bb8 20c5 c4bb 3695 613d
000000e0: 9715 b6bb 353a bdbb 7eb0 e0bb 8a82 dcbb
000000f0: ab35 afbb e1de adb9 4617 debb 1da7 553c
-0.00600545 -0.0060052667 -0.006374516 -0.0075356592 -0.0067931437 -0.0053466265 -0.006005332 -0.0060054758
-9.290732e-05 -0.0060054604 -0.0060052522 -0.0069057443 -0.006005421 -0.0060054935 0.038452167 -0.0060052304
-0.0060054883 -0.005558612 0.0 0.034232374 -0.0068886643 -0.006000675 0.0018063025 0.0
0.006013016 -0.010504921 -0.005553765 -0.006002813 -0.0060054273 -0.0060053794 -0.0060054907 -0.00068588584
0.039117746 -0.0055578724 0.030295711 -0.006005382 0.04061705 -0.006005493 -6.449444e-05 -0.0060054734
-0.005558202 -0.006005475 -0.000757227 -0.0068832273 0.035306647 -0.00016722531 0.020144338 -0.0060054935
-0.006005489 0.0108714765 -0.0017900611 -0.006005496 0.0 -5.2360992e-05 -0.0060049444 0.05507394
-0.005556773 -0.005774761 -0.006856977 -0.0067294287 -0.005346974 -0.0003316319 -0.0067776768 0.013040331

g2.W f4 [64, 64]
00000000: 7d02 523d 120e cc3d b285 babd 0e79 e43d
00000010: 2365 de3c 4715 1e3e 569e f3bd 75cc 543e
00000020: e33b e53d 5e09 e5bc 6177 d13d 6e79 c83d
00000030: 212c 18bd a615 a73d 6464 5cbe d0d9 f53d
00000040: 82a7 d7bd 02b6 f0bd e697 823d 1767 4e3e
00000050: b300 013d 8e50 613d a160 9ebd 1501 9ebd
00000060: d6f2 9fbd 1062 abbd 738d ed3d d6e3 9dbd
00000070: 1fe0 86bd f6a9 d23d a7ff 5f3e 3f55 1a3d
00000080: 468d 39bd 57dd 2d3e 5d00 55bd 8334 9bbd
00000090: 7ceb 2abe 29f7 02bd bca2 3fbe a531 f43d
000000a0: 094a b83d 29d1 513d 6a4b 513e 534f 8bbe
000000b0: f2cd 013e 6397 99bc a870 2fbe e3a4 eb3d
000000c0: 63a5 87bd 3526 d8bd a6c2 003e e1bb 81bd
000000d0: 65bc 20be 1a0f a83d d3e3 96bc d6ed 123e
000000e0: 441d 80be 6e73 48bc 71fd d13d 783f 983d
000000f0: 4eee 1d3e 7bcb 9e3c 6a26 e8bb ee8c 173e
00000100: fe4b 75be b3db 5b3e 4597 3abd 3be8 213d
00000110: baa2 493d 1d55 a23d a530 ef3d 0752 17be
00000120: dd97 08bd 2d97 c1bd f660 723d 7d97 e0bc
00000130: f0b8 843d 6969 e43c 0bc1 49be b9fa 3abe
00000140: 22e0 0a3e 2495 603d 13b7 f83c d4e7 f73d
00000150: 7608 863c 4a1f dc3d dcde 48be 0ef3 5bbd
00000160: 559f 1a3d 5ae5 a63b 7aaf 9dbc c646 303e
00000170: a546 5f3d 429c 07bb 3e51 6d3c 02d9 33be
00000180: eb88 3bbe 4a72 e53d 270b 6e3a 3a10 9c3d
00000190: cb57 12be 446e febd bf06 90be 2fb9 94bd
000001a0: 25fd 9fbe bf3d 94be a6ee 2a3d 09a5 80bd
000001b0: bbcd 1d3e 946e 293d 45d7 5bbe 5942 e93c
000001c0: bb53 9dbd d24f 083e 4b66 593d 8b32 563e
000001d0: 08d1 bdbd 8499 1ebe 5379 7fbb 93eb a4bd
000001e0: e875 1a3d 7d2d 54be 775b 62bc 46df 363d
000001f0: 1dcc 8ebe 61fd 80bc 2e21 143d f2a4 df3d
00000200: 9d8b 27bd b9aa 45bd cfe8 443e 2f5c aa3e
00000210: df06 a43d 3c8e f9bd 736f 0abe 493a ebbd
00000220: 5bb3 adbd 0140 993d 5048 9c3b c1e5 7b3e
00000230: 1b23 053e 9282 6cbd c78d 70bc c220 4cbe
00000240: 02e9 b93b 35d5 b7bc 19fc 53bd 767b 02be
00000250: 8519 183e 2664 c4bd 73dc 643c accd 303e
00000260: d99a e13c 3f3f 99bc e127 cd3c 17f8 443e
00000270: c017 92be f1c7 c0bd f0b3 a6be 577f 823d
00000280: 1ef8 cc3b 26aa 54bb eeca 84bc a292 393e
00000290: 8916 f5bd 1bda f53d 3019 cf3c b43c 703d
000002a0: eb6c 8dbd 765c f83c f130 06be b279 94bd
000002b0: 9b08 73bd 6c4b 183e 953c 04be 1d36 643e
000002c0: 602d 29be c925 ecbd 6039 933e 850e c1bb
000002d0: d66d 96bd 4657 c2bd ef1c 6abd 258d 643d
000002e0: 5c59 6f3d 0f79 a93c 2155 f8bd e94e 7dbe
000002f0: 5bcc 593c b4dd 9cbd b12a 6dbd 81df f7bd
00000300: c734 13be 2a14 343d 148e 033d e2e6 02be
00000310: 73ea f73d 0261 73bd 0d3e 913c a534 0e3e
00000320: b34f 4ebb eed9 ea3d de68 07be e759 d5bd
00000330: e25b a93d 7b9b 033e abc9 8e3d 4f7e 403e
00000340: 51c2 1dbe cf09 013e 88ed 16bd e928 943e
00000350: 269a 2f3e 2539 bebd 3653 553e b371 abbd
00000360: fb41 6abc 819d 01be 8b6c b9bd 84ed 36bd
00000370: ddd9 a3bc 2ee1 1abe bd2c 463c f37e 10be
00000380: d0be e33d f535 513e 5500 a0bb 04b5 c63d
00000390: 564d 96bd 2fb7 09bd 6696 6dbe 1e7d d63d
000003a0: 1ce8 ac3d 9cff 75be fe85 873c c645 3d3e
000003b0: b5b1 353e ce16 333e 6307 a9bd 6a70 22be
000003c0: 04b2 9d3d 4213 f63d 6d2c b2bd 5619 273e
000003d0: 4caf 2ebd 40b2 9e3c 5864 12be 60dd 2dbe
000003e0: 93d6 45bb 8779 303d c56a 11be 7104 79bb
000003f0: 31d5 193e 9b65 33be a794 04be 93f0 f63a
0.051271904 0.09963621 -0.091075316 0.11155902 0.027147835 0.15437804 -0.118954346 0.20781119
0.11193063 -0.027958568 0.10227848 0.09788786 -0.03715146 0.08158426 -0.21522671 0.12004435
-0.105299965 -0.11753465 0.063766286 0.20156513 0.031494807 0.055008464 -0.07733274 -0.0771505
-0.07809989 -0.08368313 0.11599245 -0.07709472 -0.065857165 0.10286324 0.21874867 0.037678953
-0.045300744 0.16978966 -0.0520023 -0.07578375 -0.16691393 -0.03197399 -0.18714422 0.119235314
0.08998496 0.05122486 0.20438924 -0.27208957 0.12676218 -0.018748945 -0.17132819 0.11506059
-0.06623342 -0.105541624 0.12574252 -0.06334663 -0.15696867 0.082060054 -0.018419182 0.1434854
-0.25022328 -0.012234552 0.10253418 0.07433981 0.15422937 0.019384136 -0.0070846574 0.14799854
-0.2395477 0.21470527 -0.045554418 0.039528113 0.049227454 0.0792639 0.116792 -0.14777385
-0.033347953 -0.094526626 0.0591745 -0.027415985 0.064805865 0.027882295 -0.19702546 -0.18259706
0.13562062 0.05482973 0.030360734 0.121047646 0.016361456 0.107481554 -0.19616264 -0.053698592
0.037749607 0.005093259 -0.019248713 0.17214498 0.05451073 -0.0020692502 0.014484702 -0.1756325
-0.18313949 0.112034395 0.00090806413 0.076202825 -0.14291303 -0.12423375 -0.28130147 -0.072618835
-0.3124782 -0.2895336 0.0417315 -0.06281478 0.15410511 0.04136522 -0.21468838 0.02847402
-0.07681986 0.13311699 0.05307607 0.20917718 -0.09268385 -0.15488249 -0.0038982227 -0.08052745
0.0377101 -0.20720477 -0.013815752 0.044646524 -0.278901 -0.01574582 0.036164455 0.10920133
-0.04090463 -0.048258517 0.19229434 0.33273456 0.08009123 -0.12185332 -0.13519077 -0.114857264
-0.08481475 0.07482911 0.0047693625 0.24599363 0.13001673 -0.05774171 -0.01468224 -0.19934371
0.0056735286 -0.022440532 -0.05175409 -0.12742409 0.14853485 -0.09589414 0.013968575 0.17265958
0.027539657 -0.018706916 0.02504343 0.19235264 -0.28533745 -0.09413136 -0.32559156 0.063719444
0.006255164 -0.003245005 -0.016210046 0.18122342 -0.11967189 0.12004491 0.025280565 0.05865164
-0.0690554 0.030317526 -0.13104607 -0.07249774 -0.05933438 0.14872521 -0.12913735 0.22286268
-0.16521215 -0.115306444 0.2875471 -0.0058916234 -0.07345168 -0.09489302 -0.0571565 0.05579867
0.05843483 0.020687608 -0.12125612 -0.24737133 0.013293351 -0.07659474 -0.05790204 -0.12103177
-0.14375602 0.043964542 0.032117918 -0.12783387 0.121052645 -0.059418686 0.017729783 0.1388727
-0.003148061 0.11467348 -0.13223597 -0.10417538 0.082694784 0.1285228 0.06972059 0.18798183
-0.15406157 0.12601398 -0.03684762 0.28937462 0.17148647 -0.09288243 0.20832524 -0.08371296
-0.0142979575 -0.12657739 -0.09053906 -0.044660106 -0.020001346 -0.15124962 0.012095627 -0.14110927
0.11120379 0.20430739 -0.004882852 0.09702495 -0.073389694 -0.033621963 -0.23201904 0.10473083
0.08442709 -0.24023288 0.016543385 0.18483648 0.17743571 0.17489168 -0.08253362 -0.15863195
0.076999694 0.12015392 -0.0869988 0.16318259 -0.042647645 0.019372106 -0.1429609 -0.16978979
-0.003018771 0.043084648 -0.14200886 -0.0037997032 0.15022732 -0.17519228 -0.12947331 0.0018840007

g2.b f4 [64]
00000000: 42c0 5e3d 2c68 9a3d 4dc4 fb3d 285f c53d
00000010: 31c9 c4bb 1a0b 073e 5672 093e c0e3 fa3d
00000020: 0000 0000 f467 5ebc 4929 c2bb 235c 343d
00000030: 8527 593d c9c9 c4bb ef73 0d3e 39b9 6c3d
00000040: 10c3 9ebc 7cc9 c4bb 89c1 c4bb c9c9 c4bb
00000050: 29c9 c4bb dfc8 c4bb 953e eb3d de7a 2cbc
00000060: 0000 0000 05a8 a3bb 87e5 da3d e8c5 003e
00000070: e5c2 48bc d40a 013e cbc9 c4bb 0000 0000
00000080: 329b e13d f252 053e 0000 0000 57de 0abc
00000090: 808c 5e3d d33c a9bc c00c e2bc 66e8 30bc
000000a0: 08eb 8ebb 663c ea3d 0000 0000 7576 da3d
000000b0: 0000 0000 3762 043e c0b0 293d 25bd 653d
000000c0: 6db3 c4bb 6118 02bd 4227 b6bb 0963 fe3d
000000d0: 5964 7d3d 039c 94bc 2dcc fb3d e50d d03d
000000e0: 4992 1d3d aee6 c83d bbbb febb 4036 20bd
000000f0: 2b5c 743d 4ffb f93d 73fa fe3d 0ce7 0e3e
0.05438257 0.075394005 0.12293301 0.0963729 -0.006005429 0.13187829 0.13422522 0.12250471
0.0 -0.013574589 -0.0059253317 0.04403318 0.053016204 -0.0060055 0.13813756 0.05779383
-0.019380122 -0.006005464 -0.0060045165 -0.0060055 -0.0060054255 -0.006005391 0.11486546 -0.010527341
0.0 -0.0049943947 0.1068831 0.12575495 -0.012253498 0.12601787 -0.006005501 0.0
0.11015929 0.13019922 0.0 -0.0084758615 0.05433321 -0.020658886 -0.02759397 -0.010797596
-0.004361514 0.11437301 0.0 0.10667125 0.0 0.12928091 0.041428328 0.056088585
-0.0060028345 -0.03176153 -0.005558879 0.12421233 0.061863277 -0.018140798 0.12294803 0.101589
0.038469587 0.09809624 -0.007773844 -0.039114237 0.05965821 0.122061364 0.12450113 0.13955325

lin.weight f4 [2, 64]
00000000: 9e6b 41bd ac8d e13b ae51 24be 18ee 38bd
00000010: db4d 543d 206b eebd 52f7 33be f684 08be
00000020: a636 ecbd 91f7 153d 38c9 193d 0f80 0fbd
00000030: e622 0b3d 54ad 3b3d 0349 36be f477 72bd
00000040: 33ac 993d e5f8 1e3d f93c 03bd e1ff c23d
00000050: 5784 e23d a96e fabd abb1 f3bc a4c1 6abd
00000060: 0083 853a a0fc 54bd 6ef3 0fbe 3165 12be
00000070: 09ff 99bd 439b cbbd 87cf e53d 24b9 1b3d
00000080: a093 22be 2f86 1ebe 300e 6abc 3084 913c
00000090: 7e41 98bd 8038 b33d e2e8 c13d b4b7 c13c
000000a0: 348d 9a3d 4e0e e1bd 4c4e 7abd 323a 23be
000000b0: 845e febd f6a2 25be 7c40 a33b 1859 04be
000000c0: 30f2 953d cb0a 7fbd fa41 ea3d b500 b7bd
000000d0: 915a 8c3d 4384 39bc b90c 72bd b90a 17be
000000e0: bce2 82bc 4743 12bd b21f c63d e8e8 b23c
000000f0: bec7 12be 7abd 20be 39d8 b1bd 7bbe 39be
00000100: 76f2 703c 98f4 e63d 598a 913d 40dd df3d
00000110: 0da6 243d a0fd 283e 20be 0c3e 7a44 ce3d
00000120: 508a 5ebd e962 9ebd 70cc 60bd 6af3 a53c
00000130: d824 c43d f540 b2bd f112 113e b398 5d3c
00000140: 28e4 39bc 21a8 9d3c 2382 5bbd 5668 5fbc
00000150: 25f8 cabd 858b 503d ad2f 293e e644 dbbd
00000160: 505b d3bd ae0e 4abd 6225 183d f324 e03d
00000170: 803e 9fbd a93c 233e 693b aebd 407b 97bd
00000180: dfe2 f33c 91e4 dd3d 0e80 93bd 1de1 3ebd
00000190: 5f4d d9bb 9dde aebd 6125 983d 0b1e cbbd
000001a0: 4c7a e53c efe0 d23d 0022 403d 75dd 993c
000001b0: 105b 62bd 60fe d73d f5ae 033d 707e 78bd
000001c0: bc5e 9b3d 798e 38bd a53e 2f3d 3170 1e3e
000001d0: 2a88 153e 8a6e a9ba 928e 343e b25b c73c
000001e0: 887c 813c 318e d73d 4ec8 4c3c 6630 683c
000001f0: 059a 91bd 9675 913d 8fb3 1a3e ca17 153e
-0.047221772 0.0068833437 -0.16046783 -0.04514894 0.05183206 -0.11641526 -0.17574814 -0.1333197
-0.11533861 0.03661305 0.037545413 -0.035034236 0.03396883 0.045819595 -0.1780129 -0.059196427
0.075035475 0.038811583 -0.03204057 0.09521461 0.11060398 -0.12228138 -0.029747805 -0.057313576
0.0010186136 -0.051998734 -0.14057705 -0.14296414 -0.07519347 -0.09941723 0.11221223 0.03801836
-0.15876627 -0.15480874 -0.014285609 0.017763227 -0.07434367 0.08751011 0.09468247 0.023647167
0.075464636 -0.109890565 -0.061109826 -0.15940168 -0.12420371 -0.16175446 0.0049820524 -0.12924612
0.07321584 -0.062266152 0.11438365 -0.08935682 0.06853212 -0.011323038 -0.059094165 -0.14750184
-0.015977256 -0.035708692 0.09674014 0.021839574 -0.14334008 -0.1569728 -0.08683819 -0.18139069
0.014706245 0.11277121 0.07106466 0.10930872 0.04019742 0.16503 0.13744402 0.100716546
-0.054331124 -0.07733709 -0.054882467 0.02025767 0.0957734 -0.08703796 0.14167382 0.013525176
-0.011345901 0.01924521 -0.053590905 -0.0136357155 -0.09910611 0.050914306 0.16522093 -0.10706501
-0.10320151 -0.049330406 0.037145026 0.109445475 -0.07775593 0.15941109 -0.08507425 -0.07396555
0.029771267 0.10834611 -0.07202159 -0.046601404 -0.006631538 -0.08538554 0.074290045 -0.099178396
0.028012417 0.10296809 0.046907425 0.018782357 -0.055262625 0.10546565 0.032149274 -0.060667455
0.075864285 -0.045057748 0.04278435 0.15472485 0.14602724 -0.001292662 0.17632511 0.024335716
0.015806451 0.10525168 0.012498928 0.014171695 -0.07109455 0.07102506 0.15107559 0.14559856

lin.bias f4 [2]
00000000: 8902 08be d5d9 833d
-0.13282217 0.064380325
